lstm_model.pth (torch, 210018 bytes, 10 tensors)

lstm.weight_ih_l0 f4 [256, 5]
0	0x3d7855b6	0.060628615
1	0xbd336d56	-0.043805443
2	0xbdb9a2a8	-0.09064227
3	0xbdc3fb1f	-0.09569382
4	0xbd82eb31	-0.063925155
5	0x3ceef169	0.029167848
6	0x3cf4d37b	0.029885998
7	0xbd7805ca	-0.060552396
8	0xbda189c9	-0.078876086
9	0x3dbbd53b	0.0917153
10	0xbc920551	-0.0178248
11	0xbd1a9f20	-0.03774941
12	0xbdb7fceb	-0.08983787
13	0xbe0d1ae8	-0.13779795
14	0xbcbf741c	-0.023370795
15	0x3db4471c	0.088026255
16	0x3d5eb103	0.05436803
17	0x3db76d8a	0.0895644
18	0x3cc99978	0.024609312
19	0xbdacc3e3	-0.084358
20	0x3e09f8bc	0.13473791
21	0x3d71f7d0	0.059074223
22	0xbde6ba20	-0.11265969
23	0x3d388d7d	0.04505681
24	0x3d970a9c	0.073750705
25	0xbd48a416	-0.04898461
26	0x3dba3eba	0.090939954
27	0xbd179a1a	-0.037012197
28	0xbddf505c	-0.10903999
29	0xbb954f34	-0.004556561
30	0x3cafd51b	0.021463921
31	0x3d8d5388	0.06900698
32	0xbcae2767	-0.021259023
33	0x3cfd69de	0.03093427
34	0xbbb5135a	-0.0055259885
35	0xbd53ef31	-0.051741783
36	0x3c3b60e8	0.0114366785
37	0x3dd8c26d	0.10583959
38	0xbc903c84	-0.017606981
39	0xbdea8f07	-0.114530616
40	0xbc4f71f5	-0.012661447
41	0x3d93b20a	0.07211693
42	0xbd2913b2	-0.04127855
43	0x3da4f25d	0.080540396
44	0x3d332484	0.043735996
45	0xbcad1d80	-0.02113223
46	0x3dd0b1c8	0.10190159
47	0x3d90ee74	0.07076731
48	0xbd2122cc	-0.039339826
49	0x3dc9187e	0.09819125
50	0xbd66edc6	-0.056379102
51	0xbd029523	-0.03188051
52	0x3d8944d0	0.06702578
53	0xbb634112	-0.0034676236
54	0xbd11b1f7	-0.03557011
55	0xbdd0ec04	-0.102012664
56	0xbdcecae0	-0.10097289
57	0xbdd8a925	-0.10579137
58	0x3d4d6528	0.0501453
59	0x3c54dce2	0.012992116
60	0xbe01de3b	-0.1268243
61	0xbd8cf016	-0.0688173
62	0x3db89dd0	0.09014475
63	0xbd923ebd	-0.07140873
64	0x3dae02f4	0.08496657
65	0x3dd3bc70	0.10338676
66	0xbd560bfd	-0.052257527
67	0x3cdfeab7	0.0273336
68	0xbdafb546	-0.08579497
69	0xbd280601	-0.04102135
70	0xbc9b21e3	-0.018937057
71	0xbda5052e	-0.080576286
72	0xbc89d410	-0.016824752
73	0x3c790bed	0.015200597
74	0xbb05382a	-0.0020327666
75	0x3cec2766	0.02882738
76	0x3cb3aa36	0.021931749
77	0x3c9729cb	0.018452546
78	0xbd5d2415	-0.05398949
79	0xbdf76c60	-0.12081218
80	0x3d34ae8e	0.04411178
81	0xbda4b3fb	-0.08042141
82	0x3cef7900	0.029232502
83	0x3ce18335	0.027528385
84	0xbc8119ad	-0.015759313
85	0x3d9a4deb	0.07534393
86	0xbcca1719	-0.024669217
87	0xbd47b75b	-0.048758846
88	0xbdcc9563	-0.09989431
89	0x3d69e563	0.057103526
90	0xbc718a88	-0.014742501
91	0xbdcb3443	-0.099220775
92	0xbd0da664	-0.03458251
93	0xbd466efa	-0.04844568
94	0xbc3f3c0e	-0.011672033
95	0xbd40c061	-0.047058467
96	0x3d2fe359	0.042941425
97	0x3daf8129	0.08569557
98	0x3bda4c4e	0.0066619283
99	0xbdaa6fc3	-0.08322098
100	0x3d6718a7	0.056419995
101	0xbc9b1de1	-0.018935146
102	0x3ddaecec	0.106897205
103	0xbd6e53a4	-0.058185235
104	0xbda39b3c	-0.07988593
105	0x3cb17eac	0.021666847
106	0x3d7c776f	0.06163734
107	0x3de838a1	0.11338926
108	0xbd9bd3b1	-0.07608736
109	0xbddc78bb	-0.10765215
110	0xbddb8cc4	-0.10720208
111	0xbd794b1d	-0.06086265
112	0xbdbd992a	-0.09257729
113	0xbdabed61	-0.08394886
114	0x3b0a24b9	0.0021079017
115	0xbd326b9a	-0.043559648
116	0xbd80f013	-0.062957905
117	0x3dd9767b	0.106183015
118	0x3dee27f1	0.11628712
119	0xbc9851f9	-0.018593775
120	0x3d9b8e81	0.0759554
121	0xbd639c54	-0.055569008
122	0x3dca4002	0.0987549
123	0x3dc92680	0.098217964
124	0x3db9ae22	0.09066416
125	0x3dc35422	0.095375314
126	0x3c3e7f51	0.011627034
127	0xbc322f79	-0.010875576
128	0xbcae1ec0	-0.021254897
129	0xbdd2ef40	-0.102995396
130	0x3df8861e	0.12134956
131	0x3d80c217	0.0628702
132	0x3d852347	0.06500869
133	0x3d7acd8d	0.061231185
134	0xbdb8b718	-0.09019297
135	0xbd226ca2	-0.03965438
136	0xbddccd42	-0.10781337
137	0xbdccacde	-0.09993909
138	0xbdd8e074	-0.10589686
139	0x3d918a89	0.071065016
140	0xbe01fe62	-0.12694696
141	0x3c59273c	0.013253983
142	0xbd8a79f6	-0.067615435
143	0xbc9b49cf	-0.018956093
144	0x3d032192	0.032014437
145	0x3dd989bb	0.10621973
146	0x3c7d180a	0.015447626
147	0x3cbc30a1	0.022972407
148	0x3df13e6b	0.117794834
149	0x3d0e8ca6	0.0348021
150	0xbd805436	-0.06266062
151	0x3d5af9bb	0.053460818
152	0x3d02e841	0.031959776
153	0xbdf8ea0c	-0.12154016
154	0x3ce0caa9	0.027440386
155	0x3dce1d17	0.10064142
156	0xbdca9e4a	-0.098934725
157	0xbd4a218f	-0.04934841
158	0x3cb805da	0.022463728
159	0xbdcc5a89	-0.09978206
160	0x3d9ff76d	0.078108646
161	0xbda1a443	-0.078926586
162	0x3d1c15bf	0.038106676
163	0x3ddc34c3	0.10752251
164	0x3d84f9ae	0.06492935
165	0x3d149d2b	0.0362827
166	0x3cb5bb7a	0.022184122
167	0x3df06dd0	0.11739695
168	0xbbb545b9	-0.005531993
169	0x3dbb8510	0.09156239
170	0xbdc302e8	-0.09522039
171	0x3d86c4ae	0.065804824
172	0x3ce38179	0.027771698
173	0xbd778970	-0.060433805
174	0x3c8bcc73	0.017065262
175	0xbbaa54a5	-0.0051980787
176	0xbd91268a	-0.07087429
177	0x3b2eb0ef	0.0026655754
178	0xbdb6d3ab	-0.08927091
179	0xbd3bb711	-0.045828883
180	0xbd0942ae	-0.033510856
181	0xb9d59c94	-0.00040743186
182	0x3d1e2373	0.038608026
183	0xbe0170d8	-0.12640703
184	0xbe03f8e7	-0.12887917
185	0x3dafc592	0.085826054
186	0x3c80cfd5	0.015724102
187	0xbd9eec51	-0.077599175
188	0x3d050a9f	0.032480832
189	0xbc251108	-0.010074861
190	0xbd15b440	-0.036548853
191	0xbdcedfbc	-0.10101268
192	0xbd991537	-0.074747495
193	0x3ce97d94	0.028502263
194	0xbd59dc86	-0.053188823
195	0xbd00bef2	-0.0314321
196	0xbd74469b	-0.059637647
197	0xbd00d723	-0.03145517
198	0x3cc3d3c1	0.023904683
199	0x3cf8ecf4	0.030386426
200	0x3d7d7c7d	0.0618863
201	0xbc4059f2	-0.011740195
202	0x3c079dbe	0.008277355
203	0x3dea9122	0.11453463
204	0x3d602a4b	0.054727834
205	0xbd10fad3	-0.035395455
206	0x3dc0e926	0.094194695
207	0xba58fc68	-0.00082773576
208	0xbd90361d	-0.07041571
209	0x3d984f3e	0.07436989
210	0xbb500768	-0.0031742696
211	0x3defef96	0.11715619
212	0xbd9df13f	-0.0771203
213	0x3cd8482f	0.026401607
214	0x3d35b6c3	0.04436375
215	0xbd3cc78c	-0.04608874
216	0x3def21af	0.116763465
217	0x3da202c1	0.079106815
218	0xbb9c9ed0	-0.004779674
219	0x3dfd0cbe	0.12355946
220	0x3d5d1ac1	0.053980593
221	0xbd0637d3	-0.032768082
222	0x3d0d903a	0.034561373
223	0x3caa1f40	0.020766854
224	0xbd034787	-0.032050636
225	0xbd7eb06b	-0.062179964
226	0xbd72c263	-0.059267413
227	0xbb88bd1a	-0.0041729333
228	0x3d28eaf7	0.041239705
229	0xbc67f4be	-0.014157472
230	0x3b2cb855	0.0026354988
231	0xbd28a265	-0.041170496
232	0xbb6fb97b	-0.003657906
233	0xbd8bb44f	-0.068215005
234	0xbceeaf6b	-0.02913638
235	0xbd08f84c	-0.03343992
236	0x3df99eb8	0.12188476
237	0x3da58bf8	0.080833375
238	0xbd1a325b	-0.03764568
239	0x3d1f4f2e	0.03889387
240	0x3c813733	0.015773391
241	0xbdcda4c0	-0.10041189
242	0x3de1c4e0	0.11023879
243	0xbdaab9f2	-0.083362475
244	0xbc8a7f30	-0.01690635
245	0xbda531d5	-0.08066145
246	0x3df6552a	0.120279625
247	0x3c5bc677	0.013414017
248	0xbdd099ef	-0.101856105
249	0x3dd4eeb9	0.10397095
250	0xbd77adb2	-0.060468383
251	0x3d97292f	0.07380902
252	0x3d71f37a	0.059070088
253	0x3dcea201	0.100894935
254	0x3dcb4930	0.09926069
255	0x3c95379a	0.01821499

lstm.weight_hh_l0 f4 [256, 64]
0	0xbdf1e92a	-0.11812051
1	0xbd975aab	-0.073903404
2	0xbdf78aba	-0.12087007
3	0x3d6562d5	0.056002457
4	0xbd5a67c6	-0.053321622
5	0x3da9a218	0.0828287
6	0xbd9b5024	-0.07583645
7	0x3ddec789	0.10877902
8	0xbcfac6ce	-0.030612376
9	0xbdfd8036	-0.1237797
10	0x3d5f4364	0.054507628
11	0x3c7f06d9	0.015565597
12	0x3ce0a2f1	0.027421447
13	0x3c906187	0.01762463
14	0xbd9b23e2	-0.075752035
15	0xbd4164cc	-0.047215268
16	0xbde4dfc2	-0.11175491
17	0xbdd0ab7f	-0.1018896
18	0xbbeca8e0	-0.00722228
19	0xbdaa90cb	-0.08328398
20	0xbde17c7f	-0.11010074
21	0x3ccc84d1	0.024965676
22	0xbd8aeaf0	-0.06783092
23	0x3d8a8b12	0.06764807
24	0x3ccba691	0.024859698
25	0xbda2fd32	-0.079584494
26	0x3dff6742	0.12470867
27	0x3af38563	0.0018579181
28	0xbcf7eeda	-0.03026526
29	0x3ddbac9f	0.10726284
30	0xbce70603	-0.028201109
31	0x3d1b4d4e	0.03791552
32	0x3d3934d7	0.045216408
33	0xbda1ba72	-0.0789689
34	0xbde3d3f6	-0.11124413
35	0xbdfe7f1c	-0.12426588
36	0xbda86cfd	-0.08223913
37	0x3dad66b4	0.08466855
38	0x3dd35e7a	0.10320754
39	0xbd041e54	-0.032255486
40	0xbc0bc778	-0.008531444
41	0xbd158006	-0.036499046
42	0x3dd92736	0.10603182
43	0x3d437ec4	0.047728315
44	0xbd37fb8a	-0.04491762
45	0xbd99e39f	-0.075141184
46	0x3c630816	0.013856908
47	0xbdcc3da1	-0.09972692
48	0xbcaebd9c	-0.021330647
49	0x3dd85dac	0.105647415
50	0x3df89e67	0.12139588
51	0xbda6c4df	-0.08143019
52	0xbd38d360	-0.045123458
53	0x3dc6c414	0.09705368
54	0x3d73381a	0.059379674
55	0x3cbef669	0.023310857
56	0x3d7c93ee	0.061664514
57	0xbd07076d	-0.032966066
58	0x3da73202	0.08163835
59	0xbdb7de76	-0.08977978
60	0xbd46ef7d	-0.048568238
61	0x3d8c34b7	0.06845992
62	0x3da3a452	0.07990326
63	0x3dd6a21e	0.1048014
64	0xbc2ef3b9	-0.010678225
65	0xbdbc05b6	-0.09180777
66	0x3d12aa3c	0.03580688
67	0xbc628150	-0.013824776
68	0xbe08361a	-0.13301888
69	0x3d1894f6	0.037251435
70	0x3dcafa42	0.09911014
71	0x3cd7a813	0.026325261
72	0xbd7190c1	-0.05897594
73	0x3d9d66b6	0.07685606
74	0x3d77f68f	0.06053787
75	0xbca10e1e	-0.019660052
76	0xbd65bd02	-0.056088455
77	0x3da33496	0.07969014
78	0x3bb3627c	0.0054743867
79	0xbc83321e	-0.016015109
80	0x3dc84f7b	0.09780785
81	0xbdadadd2	-0.08480419
82	0x3d80df30	0.0629257
83	0x3d3bc089	0.045837913
84	0x3cf2027d	0.029542202
85	0x3ca83c92	0.020536695
86	0xbb9c017f	-0.0047609205
87	0x3dca0be7	0.098655514
88	0xbca4cfce	-0.02011862
89	0xbd40633b	-0.046969634
90	0xbd6b33f1	-0.057422582
91	0x3cd7c855	0.026340643
92	0xbdf1957c	-0.1179609
93	0x3cd21f32	0.02564964
94	0xbd20c8a6	-0.039253853
95	0x3da476dc	0.08030483
96	0xbdb49bbb	-0.08818766
97	0xbdef8f57	-0.11697262
98	0xbdc680ef	-0.09692561
99	0x3dc82525	0.0977271
100	0x3de74d7c	0.11294076
101	0x3cfe98c5	0.031078706
102	0x3df8a467	0.12140732
103	0x3cc89c06	0.02448846
104	0xbd74c33a	-0.059756495
105	0x3c185748	0.009298153
106	0x3d483f25	0.048888344
107	0x3cf2e678	0.029650912
108	0xbd9daaf9	-0.07698626
109	0xbde13dce	-0.109981164
110	0x3d458c62	0.048229583
111	0x3cb779e0	0.022396982
112	0xbb21e05e	-0.0024700384
113	0xbdc0596e	-0.09392057
114	0x3bf9e147	0.007625732
115	0xbd38d6ea	-0.045126833
116	0x3d85483f	0.065079205
117	0x3d33617d	0.043794144
118	0x3df347b2	0.11878909
119	0x3df15f6b	0.11785778
120	0x3d238cb5	0.03992911
121	0xbd8b2535	-0.06794206
122	0xbb78aa30	-0.0037943237
123	0x3de3efd0	0.11129725
124	0xbd547888	-0.05187276
125	0x3d62f8fd	0.055413235
126	0x3dad5ca7	0.08464938
127	0x3d14cae3	0.0363263
128	0xbcb59b1e	-0.022168692
129	0xbd07c36a	-0.033145346
130	0xbd0b1397	-0.03395423
131	0x3c8ac02f	0.016937343
132	0xbd7f1ea0	-0.062285066
133	0xbdee2d0f	-0.11629688
134	0xbd285244	-0.04109408
135	0xbddd9b98	-0.10820693
136	0xbd487fd0	-0.048950016
137	0xbdabca8c	-0.08388242
138	0xbb74aada	-0.003733328
139	0x3db891d5	0.0901219
140	0xbdccfd0c	-0.10009202
141	0x3dc99e35	0.09844629
142	0x3b4d8d35	0.0031364684
143	0x3d2ff5d4	0.04295905
144	0xbb176dd7	-0.002310624
145	0x3d7211da	0.059099056
146	0xbe000b3c	-0.12504286
147	0xbd2b34a6	-0.041798256
148	0xbd217a04	-0.039423004
149	0x3dc9e1a6	0.09857492
150	0xbc975c35	-0.018476585
151	0xbce09b50	-0.027417809
152	0x3d9ab06f	0.07553183
153	0x3ceb37a3	0.028713053
154	0xbd1bb1c8	-0.038011342
155	0xbcf24606	-0.029574405
156	0xbdf121b1	-0.11774004
157	0x3da13704	0.078718215
158	0x3d4047a9	0.04694334
159	0x3da4f224	0.08053997
160	0xbdc4c31b	-0.09607526
161	0x3da5aae7	0.08089238
162	0xbd9a240d	-0.075264074
163	0x3d19adec	0.03751938
164	0xbd6e7234	-0.05821438
165	0xbdfc799e	-0.12327884
166	0x3d3e4c62	0.046459563
167	0xbdb443fc	-0.088020295
168	0x3db8e3c2	0.09027816
169	0x3e02887c	0.12747377
170	0x3e0b52e7	0.13605843
171	0xbb8a99dd	-0.0042297677
172	0x3de24959	0.11049146
173	0x3dcc0bb2	0.09963168
174	0xbd979031	-0.07400549
175	0xbdbd9d25	-0.092584886
176	0xbc003ac6	-0.007826513
177	0x3cce5633	0.025187587
178	0xbb238d4a	-0.002495604
179	0xbd7133e8	-0.058887392
180	0x3c587372	0.013211118
181	0xbd069e3b	-0.032865744
182	0x3cae7f52	0.021300945
183	0xbcc5dc0e	-0.024152782
184	0xbe0d84dd	-0.13820215
185	0xbdb2fb28	-0.087393105
186	0xb9a7987c	-0.00031966332
187	0x3cf121cd	0.029435063
188	0x3df9cadf	0.12196898
189	0xbca1b290	-0.019738466
190	0xbd2700e4	-0.040772334
191	0x3d9655bf	0.073405735
192	0xbddfba30	-0.10924184
193	0x3d33aa79	0.043863747
194	0x3d77f41c	0.060535535
195	0xbd84f513	-0.06492057
196	0xbd864e30	-0.06557882
197	0x3dbf7204	0.09347919
198	0x3d823ec6	0.06359629
199	0x3dcb2cd2	0.09920658
200	0xbc383dbf	-0.01124519
201	0x3d215d2b	0.039395493
202	0x3d33a20d	0.043855716
203	0x3da00443	0.07813313
204	0x3d4d830d	0.050173808
205	0xbdcd57d4	-0.100265175
206	0xbd4c5e3c	-0.049894556
207	0xbd92441d	-0.07141898
208	0x3d8a0028	0.06738311
209	0xbdc5a088	-0.096497595
210	0x3e15cdc5	0.14629276
211	0x3dd09832	0.10185279
212	0x3dab08f8	0.0835132
213	0x3e0720f4	0.13196164
214	0x3c93c6ff	0.018039225
215	0xbd24b06f	-0.040207323
216	0xbc506b9e	-0.01272097
217	0x3d0ec10b	0.03485207
218	0xbd0735a6	-0.033010148
219	0x3dd31c99	0.10308189
220	0x3d61429a	0.054995157
221	0xbc83caa4	-0.016087838
222	0x3c27141c	0.010197666
223	0x3dc233b6	0.09482519
224	0xbddd9843	-0.10820057
225	0xbd7596ba	-0.059958197
226	0x3d064752	0.03278286
227	0xbdd8cb8a	-0.10585697
228	0xbdf1a811	-0.11799634
229	0x3d2a7f97	0.041625585
230	0xbd8b9676	-0.068158075
231	0xbd76d9c2	-0.060266264
232	0x3dd08ad9	0.10182733
233	0x3da2317e	0.07919596
234	0xbd58eb76	-0.052958928
235	0xbc51de60	-0.012809366
236	0x3dae4eba	0.0851111
237	0xbdd79457	-0.105263405
238	0x3da6a3ed	0.08136735
239	0x3dbc12f9	0.09183306
240	0xbb4af133	-0.003096652
241	0xbd87036d	-0.0659245
242	0x3dabaaff	0.08382224
243	0x3dbde30a	0.0927182
244	0xbdd508b7	-0.10402053
245	0xbc12b869	-0.0089551
246	0xbda8e0cb	-0.08246001
247	0x3da55f64	0.08074835
248	0x3cb867c9	0.022510426
249	0x3c88aaa7	0.016682936
250	0xbd540eab	-0.0517718
251	0xbdccf98a	-0.10008533
252	0xbd0ec880	-0.03485918
253	0xbd476528	-0.048680454
254	0x3cceb807	0.025234235
255	0x3d1be70c	0.03806214

lstm.bias_ih_l0 f4 [256]
0	0x3d8edb2f	0.069754
1	0x3d704af6	0.05866524
2	0xbe06a507	-0.1314889
3	0x3ddfc6d6	0.10926597
4	0xbd961943	-0.07329037
5	0x3ddacb9b	0.10683366
6	0xbd4161de	-0.047212474
7	0xbd222f7d	-0.03959607
8	0x3dbe4e47	0.09292274
9	0xbd93c8ae	-0.07216011
10	0x3e00bb5b	0.1257147
11	0xbded0af9	-0.115743585
12	0xbc88fdf3	-0.016722655
13	0x3dafeeac	0.08590445
14	0x3b8b1031	0.0042438735
15	0x3c7c48c5	0.015398209
16	0xbdd8b1e7	-0.10580807
17	0x3c9f6a08	0.01945974
18	0xbe0899c2	-0.13339904
19	0x3d8a1a14	0.06743255
20	0xbdec96f6	-0.11552231
21	0xbddbbe36	-0.10729639
22	0x3d0ace76	0.033888303
23	0x3dd28ed1	0.10281146
24	0xbdb86345	-0.09003309
25	0xbdd8e541	-0.10590602
26	0xbdedd67e	-0.11613177
27	0x3e010a4c	0.12601584
28	0x3d493108	0.049119025
29	0x3d623660	0.055227637
30	0xbd14e6bc	-0.036352858
31	0x3c918fc5	0.01776875
32	0xbd1ec0df	-0.038758155
33	0xbcf19079	-0.029487835
34	0x3d3f906f	0.046768602
35	0x3dbe755b	0.092997275
36	0xbde082e7	-0.10962468
37	0xbdfcdeaf	-0.12347161
38	0xbdfc399e	-0.12315677
39	0xbbc0f091	-0.0058880528
40	0x3d822f2f	0.06356656
41	0x3e0856c1	0.13314344
42	0xbc4b233e	-0.012398539
43	0xbcf9929f	-0.030465422
44	0x3be82938	0.007084992
45	0x3dcc909f	0.09988522
46	0xbcd5044b	-0.026003024
47	0xbde758ae	-0.11296211
48	0xbda6bb81	-0.08141232
49	0x3dae62b9	0.085149236
50	0xbd89319b	-0.066989146
51	0xbc6d1c56	-0.014472088
52	0xbdddd4fc	-0.10831639
53	0x3afb1419	0.001915577
54	0xbddb4952	-0.10707344
55	0x3dee7923	0.11644199
56	0xbd2fa45b	-0.04288135
57	0xbb9732de	-0.004614218
58	0xbdbcbe70	-0.092160106
59	0x3cc5fe62	0.02416915
60	0x3db8406f	0.08996665
61	0xbcaf2361	-0.021379175
62	0x3cae3100	0.0212636
63	0xbd7e1b96	-0.062038027
64	0xbd5dd3cd	-0.054157067
65	0xbe07a847	-0.13247786
66	0x3d4865b6	0.048925124
67	0xbdb2afe8	-0.08724958
68	0x3c7c05d3	0.015382248
69	0xbdb020ad	-0.085999824
70	0xbda98df5	-0.08279029
71	0xba6380dc	-0.00086785643
72	0xbdcc6e1e	-0.09981941
73	0x3c8dcdce	0.01731005
74	0x3d98d9ce	0.07463418
75	0xbd47ae50	-0.04875022
76	0xbe0aa6f4	-0.1354025
77	0xbdfcd123	-0.12344577
78	0xbd9d68c3	-0.07685997
79	0xbd0c3d4f	-0.034238156
80	0x3da2f94c	0.07957706
81	0xbd412727	-0.04715648
82	0xbd1d2e7f	-0.03837442
83	0xbdb81eb7	-0.089902334
84	0xbd3198e7	-0.04335871
85	0x3d0ee1f9	0.034883473
86	0xbdbb06f2	-0.09132184
87	0x3dac5b55	0.08415858
88	0xbe003efa	-0.12524024
89	0x3e027c52	0.12742737
90	0xbc92901a	-0.017890979
91	0x3a9dc5d2	0.0012037104
92	0x3dbd4f31	0.0924362
93	0xbd0724e4	-0.032994166
94	0x3ddbad5c	0.10726425
95	0xbc89f595	-0.016840735
96	0xbded77df	-0.11595129
97	0xbddb001a	-0.10693379
98	0xbb9553eb	-0.004557123
99	0x3deb323e	0.11484192
100	0x3daba1b5	0.083804525
101	0x3d3efc09	0.04662708
102	0xbd462330	-0.0483734
103	0x3c9ec43a	0.019380677
104	0xba9accd0	-0.0011810306
105	0xbdd30e94	-0.10305515
106	0xbd8c1f07	-0.068418555
107	0x3d27233b	0.040805083
108	0x3dba9ca7	0.0911191
109	0xbe0605a2	-0.13088086
110	0x3b81df4a	0.0039633857
111	0xbd9b4051	-0.07580627
112	0x3ccfb194	0.02535323
113	0x3dc9bdb7	0.09850638
114	0xbd9714a0	-0.07376981
115	0xbd8f19a0	-0.069873095
116	0x3cb46e0c	0.02202513
117	0x3dc0d574	0.09415713
118	0xbdc91501	-0.09818459
119	0x3bf1f4dd	0.0073839263
120	0xbd369447	-0.044575002
121	0xbd560b8d	-0.05225711
122	0xbcdcd5d9	-0.02695744
123	0xbdde344d	-0.10849819
124	0xbcc4a745	-0.024005542
125	0xbd92ba4e	-0.07164441
126	0x3ba603aa	0.0050663548
127	0x3e0aa867	0.13540803
128	0x3d0a09a3	0.033700597
129	0xbd8c62f5	-0.06854812
130	0xbe0fbcea	-0.14036909
131	0xbd6f1ce5	-0.058377165
132	0x3d9db2fb	0.077001534
133	0xbd733b84	-0.05938293
134	0x3dce12da	0.100621894
135	0x3d5b52fc	0.053545937
136	0x3c8e92b7	0.017403943
137	0xbdb231c3	-0.087008975
138	0x3e016c56	0.12638983
139	0x3d9baee7	0.07601719
140	0xbd312d15	-0.043255884
141	0xbdd9e203	-0.106388114
142	0xb95740c0	-0.00020528119
143	0x3dc36ef6	0.095426485
144	0xbd8ddf5a	-0.069273666
145	0x3d8148e0	0.06312728
146	0x3c5254d8	0.012837611
147	0x3c658856	0.014009556
148	0x3cf13adf	0.029447017
149	0x3dc96282	0.09833242
150	0xbcb5047f	-0.02209687
151	0xbdef3b66	-0.11681251
152	0xbdd51159	-0.104036994
153	0x3d6161ce	0.055024914
154	0x3d76281c	0.060096845
155	0x3dad8d16	0.08474176
156	0x3c31eda9	0.010859885
157	0x3de4a4b1	0.11164225
158	0xbdd3cefd	-0.10342214
159	0x3cff6707	0.031177057
160	0xbd84c560	-0.06482959
161	0x3dcb65e8	0.099315464
162	0x3dae2622	0.08503367
163	0x3c2cd829	0.0105495835
164	0xbdb9df03	-0.09075739
165	0x3d1992bf	0.037493464
166	0xbd3c712a	-0.04600636
167	0xbddd14ef	-0.107950084
168	0xbd8f3fd1	-0.06994594
169	0xbe09c20b	-0.13452928
170	0x3d07207a	0.032989956
171	0xbde4aa3d	-0.11165283
172	0x3d75538f	0.05989414
173	0xbd1b65d5	-0.03793891
174	0xbe0c6617	-0.13710819
175	0x3d701fee	0.0586242
176	0x3d400c31	0.046886627
177	0x3dde4073	0.108521365
178	0xbbc96595	-0.0061461427
179	0xbdd2afc1	-0.10287429
180	0xbb808a84	-0.0039227623
181	0x3d183f4f	0.03716975
182	0xbb9c99f5	-0.0047790953
183	0xbdc5bc80	-0.09655094
184	0x3e120ce2	0.14262727
185	0xbe0eab29	-0.1393248
186	0xbe0159f0	-0.12631965
187	0x3d0d6bd3	0.034526657
188	0xbdac17e9	-0.08402998
189	0xbd6d9bbf	-0.05800986
190	0x3ce35cce	0.027754214
191	0xbdb4dfed	-0.08831773
192	0xbded690b	-0.11592301
193	0xbdc60471	-0.09668816
194	0x3dd2f77a	0.10301109
195	0xbdcce829	-0.100052185
196	0x3d8f5b14	0.06999794
197	0xbdb50ff4	-0.088409334
198	0xbc860985	-0.016361961
199	0x3dc84f20	0.09780717
200	0xbcf4f1c1	-0.029900433
201	0x3c6b69ca	0.014368484
202	0xbbe23469	-0.0069032204
203	0x3ddb6998	0.107135
204	0x3d236aaf	0.039896663
205	0xbd371daa	-0.044706024
206	0x3d3a5386	0.04548981
207	0xbdb8b4f9	-0.09018893
208	0xbdc264d1	-0.094918855
209	0xbd60d8e7	-0.054894354
210	0xbe0202cf	-0.12696384
211	0xbbff90e9	-0.007799257
212	0xbd492564	-0.049107924
213	0x3d0e0c8b	0.03467993
214	0xbd174561	-0.0369314
215	0xbcf65781	-0.030071022
216	0x3d91caa9	0.071187325
217	0x3b935cf5	0.0044971653
218	0xbda8f6cc	-0.08250198
219	0x3d40c9c5	0.047067422
220	0x3c3a447f	0.01136887
221	0x3d589bda	0.052883007
222	0xbdf4e9cf	-0.11958658
223	0xbcc89b06	-0.024487983
224	0x3d22c10f	0.039734896
225	0xbdc82d3d	-0.097742535
226	0xbddb0f4b	-0.10696276
227	0xbcffdfdc	-0.031234674
228	0xbd021b42	-0.031764276
229	0x3ddc3169	0.10751612
230	0x3dbcf317	0.09226053
231	0xbd44f394	-0.048083857
232	0x3d36a67e	0.044592373
233	0xbdb80540	-0.08985376
234	0xbcb480ef	-0.022034137
235	0x3d8e63c7	0.06952625
236	0x3d887569	0.06663019
237	0xbc2e08b2	-0.01062219
238	0xbd0fc026	-0.035095356
239	0xbdd86a6b	-0.105671726
240	0x3dd76457	0.10517185
241	0x3d53bbe3	0.051692855
242	0xbdca0c0a	-0.098655775
243	0x3b41cbeb	0.0029571007
244	0x3df81442	0.12113239
245	0x3d4fad2c	0.05070226
246	0x3df07900	0.11741829
247	0x3d3916e3	0.045187842
248	0x3d542074	0.051788762
249	0xbd3bbb22	-0.04583276
250	0x3da8d4bd	0.082437016
251	0x3d4bcf6f	0.04975837
252	0x3dd6d923	0.10490634
253	0x3ccf6398	0.025316045
254	0x3cf493bc	0.029855601
255	0xbda82c45	-0.08211569

lstm.bias_hh_l0 f4 [256]
0	0x3c723e8f	0.014785423
1	0x3dcb245b	0.09919044
2	0xbe0d8fe6	-0.13824424
3	0xbc9cda2f	-0.019147007
4	0xbd18a3ec	-0.037265703
5	0xbdc765f1	-0.09736241
6	0x3de0aff2	0.10971059
7	0xbd8a54cf	-0.06754457
8	0x3daba91d	0.08381865
9	0xbcd6acaa	-0.02620538
10	0xbd956a62	-0.072956815
11	0xbde37eb3	-0.1110815
12	0xbb2dfb21	-0.002654739
13	0x3deb6b14	0.11495033
14	0x3d17926e	0.03700488
15	0x3d5c07e2	0.053718455
16	0xbb856585	-0.00407094
17	0xbc914bc8	-0.01773633
18	0xbcfe7ef2	-0.031066392
19	0x3aeda082	0.00181295
20	0xbcff6e3f	-0.0311805
21	0xbdbc13ca	-0.09183462
22	0xbd60f53f	-0.054921385
23	0x3db29ca3	0.08721282
24	0xbc7a61b7	-0.015282086
25	0x3d454272	0.04815907
26	0xbdb08c46	-0.08620505
27	0x3cbf7538	0.023371324
28	0x3d9d3d50	0.0767771
29	0xbdacd0ef	-0.084382884
30	0x39f2efa9	0.00046336398
31	0xbd84101d	-0.06448386
32	0xbd4b16e7	-0.04958239
33	0x3d713f2b	0.058898132
34	0xbd81fe7d	-0.06347368
35	0x3df12497	0.11774557
36	0xbd7684d3	-0.060185265
37	0xbe0ac173	-0.13550358
38	0xbbf030ad	-0.0073300214
39	0xbc94ac83	-0.018148666
40	0xbd2c0ad9	-0.042002533
41	0xbda6f766	-0.08152656
42	0x3d16144a	0.036640443
43	0xbd7df9d1	-0.06200582
44	0x3cddb213	0.027062451
45	0xbdf2816b	-0.11841091
46	0x3c706fe3	0.014675113
47	0x3d87d7e3	0.06632974
48	0x3b4aacd6	0.0030925772
49	0x3d15e1c4	0.03659226
50	0x3d92e407	0.07172399
51	0x3d421f11	0.04739291
52	0xbc75f5f7	-0.015012256
53	0xbca56cfc	-0.02019357
54	0x3c0ebc57	0.008711896
55	0x3dac7cd9	0.0842225
56	0xbc3ee79c	-0.0116519
57	0x3dc617be	0.09672497
58	0xbdd96006	-0.10614018
59	0xbdbb1dff	-0.09136581
60	0x3da6aed7	0.08138817
61	0x3d6fba70	0.05852741
62	0x3cc2fdb8	0.023802623
63	0xbd1bffad	-0.03808563
64	0xbddff807	-0.10935979
65	0xbdf19742	-0.11796428
66	0x3dd1b68d	0.10239897
67	0xbd9741ae	-0.07385574
68	0x3e009130	0.12555385
69	0xbdbbfef7	-0.0917949
70	0x3e038602	0.12844089
71	0xbdd998f8	-0.106248796
72	0x3dbbcf48	0.09170395
73	0xbe00abe3	-0.1256557
74	0x3cdb8632	0.026797388
75	0xbda76a70	-0.08174598
76	0xbda19aec	-0.07890877
77	0x3d03c151	0.032166783
78	0xbd0a048a	-0.033695735
79	0x3c6972e9	0.014248588
80	0xbdb2eca8	-0.08736545
81	0x3d9f7d65	0.07787589
82	0x3d36ae45	0.04459979
83	0xbc7c0502	-0.015382053
84	0x3dc1aa25	0.094562806
85	0xbd8458d7	-0.06462257
86	0xbdd916c0	-0.10600042
87	0x3da850a7	0.08218508
88	0xbe04b9bd	-0.12961479
89	0xbdc2e9a3	-0.09517219
90	0xbd8735d8	-0.06602067
91	0xbd5e34c4	-0.05424954
92	0xbd40cd36	-0.047070704
93	0x3d7e3d9d	0.062070478
94	0xbaf462f7	-0.0018645216
95	0x3db7e99d	0.08980105
96	0xbda9d99b	-0.08293458
97	0xbbdd413a	-0.0067521604
98	0x3dcb3763	0.099226736
99	0xbd44f2b2	-0.048083015
100	0x3cd20ef0	0.025641888
101	0xbc46383e	-0.01209837
102	0x3cd19296	0.025582593
103	0x3da43424	0.080177575
104	0x3d465df9	0.048429463
105	0x3deb883c	0.11500594
106	0x3dfaeadb	0.122518264
107	0xbd41c67b	-0.047308426
108	0xbdd9a667	-0.10627442
109	0xbd83655c	-0.06415817
110	0xbd1c996c	-0.038232252
111	0xbd5d8aaf	-0.054087337
112	0x3dfdbf15	0.12389962
113	0x3d8baa79	0.068196245
114	0x3c7f78e2	0.015592786
115	0x3bb837a3	0.005621867
116	0x3db34cef	0.08754908
117	0xbce47c2c	-0.027891241
118	0xbdfadd71	-0.12249268
119	0xbdcd2595	-0.10016934
120	0xbd66f970	-0.056390226
121	0x3deb44a0	0.114876986
122	0xbdd6b0df	-0.10482954
123	0x3c3f03c2	0.011658611
124	0xbc8eec16	-0.017446559
125	0x3d8b1db0	0.06792772
126	0xbcbb2236	-0.022843461
127	0x3e0008eb	0.12503402
128	0x3db6f684	0.08933738
129	0x3b36bf08	0.002788486
130	0x3dbe86d4	0.0930306
131	0xbc1b0731	-0.009462164
132	0x3de66a05	0.1125069
133	0x3defcdc3	0.11709168
134	0x3c843e97	0.016143126
135	0x3da16035	0.07879678
136	0xbe084d1b	-0.13310663
137	0xbdd39d59	-0.10332746
138	0xbc3e9463	-0.011632058
139	0xbd55c60a	-0.052190818
140	0xbd812aee	-0.06307016
141	0xbc257fd6	-0.010101279
142	0xbd3efdec	-0.046628878
143	0xbc2ac991	-0.010424034
144	0xbd301a5e	-0.042993896
145	0xbdca5c00	-0.09880829
146	0x3d3e2a62	0.04642714
147	0x3dc04edb	0.093900405
148	0xbdc4b8db	-0.09605571
149	0xbd89dea4	-0.067319185
150	0x3d005140	0.031327486
151	0xbd736616	-0.05942353
152	0x3de485ad	0.11158309
153	0x3e054eb3	0.13018303
154	0x3db0b837	0.08628886
155	0xbc82393c	-0.015896432
156	0xbb99158c	-0.004671758
157	0x3d9e3421	0.077247865
158	0x3d638613	0.055547785
159	0xbb464e31	-0.0030259008
160	0xbc9951ad	-0.018715704
161	0x3c5f1255	0.013615211
162	0xbd8febee	-0.07027422
163	0xbdcde05a	-0.10052557
164	0x3c71aa00	0.014750004
165	0xbda0f4b1	-0.07859171
166	0x3d3ef87e	0.0466237
167	0xbda41499	-0.08011741
168	0x3d283fb2	0.04107637
169	0x3d916a22	0.07100321
170	0xbdcd5af9	-0.10027117
171	0xbdef8101	-0.116945274
172	0xbe0467e4	-0.12930256
173	0x3cfa0220	0.030518591
174	0x3d8442f6	0.06458084
175	0x3e0963ac	0.13416928
176	0xbddc23b5	-0.10748998
177	0x3e034b28	0.12821639
178	0x3db67416	0.089088604
179	0xbe05586a	-0.13022009
180	0xbdfdc306	-0.123907134
181	0x3d91bce9	0.0711611
182	0x3c45c788	0.012071498
183	0x3d090d78	0.03346011
184	0xbbd10603	-0.0063788905
185	0xbc9b3f18	-0.018950984
186	0x3da0730b	0.07834443
187	0x3c01b308	0.0079162195
188	0xbca35bc6	-0.019941222
189	0xbdb9368c	-0.09043607
190	0xbd49a7c0	-0.049232244
191	0xbdad2381	-0.084540375
192	0xbd375843	-0.044761907
193	0x3d8dc171	0.06921662
194	0x3d435de2	0.047696956
195	0x3d13ce8d	0.036085654
196	0x3d84bc43	0.064812206
197	0x3de37786	0.11106782
198	0x3c18387e	0.009290813
199	0x3d9d96a0	0.07694745
200	0xbcf639b9	-0.030056821
201	0x3de28114	0.11059776
202	0x3d9751ce	0.0738865
203	0x3dba1806	0.09086613
204	0xbd3d025a	-0.04614482
205	0x3dd4469c	0.1036503
206	0xbc2ae5c7	-0.01043076
207	0xbccf68a6	-0.025318455
208	0x3d670fd8	0.056411594
209	0x3e0265e7	0.12734185
210	0xbc903df3	-0.017607665
211	0x3cd25303	0.025674349
212	0x3c3fd910	0.011709467
213	0xbb1c0591	-0.0023807029
214	0xbd07b224	-0.033128873
215	0x3df30914	0.11866966
216	0xbdfce977	-0.123492174
217	0xbd8eb24c	-0.06967601
218	0x3d99fafa	0.07518573
219	0x3d621b45	0.055201788
220	0x3dc3d4ba	0.09562059
221	0x3d79cba5	0.060985226
222	0xbd8f7349	-0.07004411
223	0x3df71c6e	0.120659694
224	0xbda217d6	-0.079147026
225	0xbd4b7694	-0.04967363
226	0x3db0de29	0.08636124
227	0x3b452a62	0.0030085077
228	0x3c589077	0.013218037
229	0xbda9be75	-0.0828828
230	0x3c436d3e	0.011927901
231	0x3dff10f2	0.12454404
232	0x3d5f9ada	0.054591037
233	0x3dc0fe18	0.094234645
234	0xbdf1bbf1	-0.11803425
235	0xbd13ba1b	-0.036066156
236	0xbd3c7769	-0.046012316
237	0xbd1df6e8	-0.038565546
238	0x3dc6fbf8	0.09716028
239	0x3db12e1f	0.08651375
240	0xbd94c057	-0.072632484
241	0x3e0053b6	0.12531933
242	0xbced6a7a	-0.028981436
243	0x3da209d1	0.079120286
244	0xbd04a85a	-0.032387115
245	0xbdd9633b	-0.1061463
246	0x3cc813f5	0.024423579
247	0x3bd97cb7	0.0066371816
248	0xbd793d9b	-0.060849767
249	0xbd960f06	-0.07327084
250	0xbd7abe1d	-0.061216462
251	0xbde0575a	-0.10954161
252	0x3d8fa91f	0.07014679
253	0xbd29995b	-0.041406017
254	0x3de341a6	0.11096506
255	0x3e03c687	0.12868701

lstm.weight_ih_l1 f4 [256, 64]
0	0xbdb53913	-0.08848777
1	0x3d7d1ed3	0.061796974
2	0xbd86d800	-0.065841675
3	0x3c8d0de3	0.017218536
4	0xbc979c1c	-0.018507056
5	0x3c193fde	0.009353606
6	0x3d08c50d	0.033391047
7	0xbdf83382	-0.12119199
8	0x3df1352a	0.11777718
9	0x3e078f9b	0.13238375
10	0xbd84731c	-0.06467268
11	0xbc71f51c	-0.014767911
12	0xbd6bc36f	-0.057559427
13	0x3e04606c	0.12927407
14	0xbdc58b02	-0.09645654
15	0xbd8f810d	-0.07007036
16	0xbd7c789a	-0.061638452
17	0x3da402dc	0.08008358
18	0xbdc5a355	-0.09650294
19	0x3d68f406	0.056873344
20	0xbdeb6e17	-0.11495607
21	0xbdf6dbf3	-0.12053671
22	0x3d89fbe4	0.067374974
23	0xbdc8ab1e	-0.09798263
24	0xbd5ef81d	-0.054435838
25	0x3d02a492	0.031895228
26	0xbc5bd216	-0.013416788
27	0xbe0731b7	-0.13202558
28	0x3dadf9ac	0.08494887
29	0x3cbce580	0.023058653
30	0xbc8d17f3	-0.017223334
31	0xbd37083b	-0.044685584
32	0xbd1fce96	-0.039015375
33	0xbe07d887	-0.13266192
34	0xbd283b96	-0.04107245
35	0xbd521b16	-0.051295362
36	0xbc7b7486	-0.015347606
37	0x3dda8567	0.10669976
38	0xbcba90da	-0.022774149
39	0x3b4d681d	0.0031342574
40	0x3d71daf2	0.059046693
41	0x3db00255	0.08594195
42	0x3d93103c	0.07180831
43	0x3d8705ec	0.065929264
44	0x3e0d5782	0.13802913
45	0x3db23a7f	0.087025635
46	0x3d1d5bc2	0.038417585
47	0xbd4a4757	-0.04938444
48	0x3a922442	0.0011149722
49	0xbd21bed7	-0.03948864
50	0xbdae1d45	-0.085016765
51	0xbd55cbb1	-0.05219621
52	0x3c84e94e	0.01622453
53	0xbd9156fd	-0.0709667
54	0x3df60d4e	0.120142564
55	0xbb8549da	-0.0040676417
56	0xbde3eb50	-0.11128867
57	0xbd0be7d4	-0.034156635
58	0xbd50150b	-0.05080132
59	0xbdcfdc46	-0.10149436
60	0x3da17e32	0.07885398
61	0x3bf92348	0.007603083
62	0x3dc063bb	0.09394022
63	0x3e0703af	0.13184999
64	0xbdc56f5a	-0.09640379
65	0xbdaa5afd	-0.08318136
66	0xbd9e0acb	-0.07716902
67	0x3d95fb0f	0.07323276
68	0xbd309ce2	-0.043118365
69	0xbd61bd3a	-0.0551121
70	0x3d34d4f0	0.044148386
71	0x3c65772c	0.014005464
72	0xbd642117	-0.05569562
73	0xbd23d86b	-0.040001314
74	0xbcc442b1	-0.023957582
75	0x3d9437a8	0.07237178
76	0x3b6a820a	0.0035783076
77	0x3de28d97	0.11062162
78	0x3d123e86	0.03570416
79	0xbd059de8	-0.032621294
80	0xbd6e39e3	-0.058160674
81	0x3de4a66a	0.111645535
82	0x3e0f8c70	0.14018416
83	0x3e008e7d	0.12554355
84	0x3dc8d31f	0.09805893
85	0xbd899cde	-0.06719373
86	0xbdb3a5ae	-0.08771835
87	0x3dc40f4b	0.095732294
88	0xbbdcfae5	-0.006743776
89	0xbde96ab1	-0.11397303
90	0x3abd4bee	0.0014442184
91	0x3d693c9c	0.056942567
92	0x3cd9b15f	0.026573835
93	0xbd91ac93	-0.07112994
94	0xbc5620c5	-0.013069336
95	0xbc0248df	-0.007951944
96	0xbde394f8	-0.11112398
97	0xbd2e4aa0	-0.042551637
98	0x3df7b490	0.120949864
99	0x3d948bc8	0.07253224
100	0xbde826cf	-0.11335527
101	0xbdcbddad	-0.09954391
102	0xbdc3695d	-0.09541581
103	0x3dda8ead	0.106717445
104	0x3d40c260	0.04706037
105	0xbd9b1c90	-0.07573807
106	0xbdbaf8aa	-0.0912946
107	0x3cb1c9ad	0.021702612
108	0xbcd2092c	-0.02563914
109	0xbc523ea9	-0.012832322
110	0x3db5a247	0.088688426
111	0x3d513c98	0.051083177
112	0xbdb713a7	-0.08939295
113	0x3ccd2cc7	0.025045766
114	0xbc8d9ab6	-0.017285686
115	0xbdd26cca	-0.10274656
116	0x3b25594c	0.0025230227
117	0x3db8d5f4	0.09025183
118	0x3ddbcd3c	0.10732505
119	0x3d9e1ca5	0.07720307
120	0xbd265a4e	-0.040613465
121	0x3cd6d6ce	0.026225474
122	0xbcf8466d	-0.03030702
123	0xbd8582b9	-0.06519074
124	0xbd24512a	-0.040116467
125	0x3d066d69	0.032819185
126	0xbafbe552	-0.0019218123
127	0x3de5253e	0.11188744
128	0xbd5683b3	-0.052371692
129	0x3dbc6d4a	0.09200533
130	0x3c504ddb	0.012713875
131	0xbd1a1b95	-0.03762396
132	0xbe0e33bf	-0.13886927
133	0xbc7813dc	-0.015141454
134	0xbd66ef86	-0.05638077
135	0xbdd3c2e8	-0.1033991
136	0x3bae0ffe	0.005311965
137	0x3d00a0f2	0.03140349
138	0x3c49cffc	0.012317654
139	0xbde19f17	-0.11016672
140	0x3d5a8607	0.053350475
141	0xbc641c9d	-0.013922838
142	0xbcaba8ef	-0.020954577
143	0xbd6550e8	-0.05598536
144	0x3d83047e	0.06397341
145	0xbd3a351f	-0.045460816
146	0xbdeeba7c	-0.11656663
147	0x3dcf8bfc	0.10134122
148	0xbda2ebed	-0.079551555
149	0x3bc36112	0.0059624994
150	0x3d746c15	0.059673388
151	0xbc1c9408	-0.009556778
152	0xbdccdbeb	-0.100028835
153	0xbdb4812e	-0.088137016
154	0xbcd6d28e	-0.026223447
155	0x3d0e4928	0.034737736
156	0xbdd854cc	-0.10563049
157	0xbe052b72	-0.13004854
158	0x3bdbd15b	0.0067083067
159	0x3d3c260a	0.045934714
160	0x3d20128a	0.03908018
161	0xbda894fd	-0.08231542
162	0x3da7d29f	0.0819447
163	0xbcf38c4d	-0.029729987
164	0x3dc3cb8e	0.09560309
165	0xbd1cfb5b	-0.03832565
166	0x3d254e67	0.040357973
167	0x3e0b4f00	0.13604355
168	0xbd933e06	-0.071895644
169	0x3de06b42	0.10957958
170	0x3d8802e3	0.066411756
171	0xbdb1962e	-0.086712226
172	0xbc7d74cc	-0.015469741
173	0xbd520652	-0.05127556
174	0x3da13c0e	0.07872783
175	0x3c7933b0	0.015210077
176	0xbc644390	-0.013932124
177	0xbd96390a	-0.07335098
178	0xbe0f492c	-0.13992757
179	0x3dc797b9	0.09745736
180	0x3d5855b1	0.052816097
181	0x3d21cd7f	0.039502617
182	0xbe03e602	-0.1288071
183	0x3df2f900	0.11863899
184	0xbcf924e3	-0.030413097
185	0x3dd22355	0.10260645
186	0xbd49ba1c	-0.049249753
187	0x3cec2380	0.028825521
188	0x3d81820d	0.06323633
189	0x3d7608ff	0.060067173
190	0x3d228cd8	0.0396851
191	0x3dee6505	0.11640362
192	0x3d9a37b2	0.07530154
193	0x3c873801	0.016506197
194	0x3d033c73	0.03204007
195	0x3de79f8f	0.1130973
196	0x3c7e7917	0.0155318
197	0xbda3f032	-0.08004798
198	0xbe0d7597	-0.13814388
199	0x3dbc6ba8	0.09200221
200	0xbc86193e	-0.016369458
201	0x3deea135	0.116518416
202	0x3c05a124	0.008156095
203	0xbded78ab	-0.11595281
204	0x3db7305b	0.0894477
205	0x3d324b00	0.043528557
206	0xbd6e8ee6	-0.058241747
207	0xbdcbe614	-0.09955993
208	0xbd683894	-0.056694582
209	0x3cb5ff48	0.022216454
210	0xbc361006	-0.011112219
211	0x3bd0e73e	0.0063752225
212	0xbb970db6	-0.004609789
213	0x3db8c880	0.09022617
214	0x3d0f4953	0.034982037
215	0x3d5c660b	0.053808253
216	0xbde65a3a	-0.11247678
217	0x3d94069d	0.07227824
218	0xba5cdf31	-0.0008425592
219	0x3d54c4d6	0.05194553
220	0x3d85442f	0.065071456
221	0xbbb58afe	-0.005540251
222	0x3bdc6365	0.006725716
223	0xbd946121	-0.07245088
224	0x3dc52ca6	0.09627657
225	0xbdffeb6a	-0.124960735
226	0xbe04bee4	-0.12963444
227	0xbd7ddf88	-0.061980754
228	0xbc82e7bf	-0.015979646
229	0xbc8c3962	-0.017117206
230	0x3d8e52cb	0.06949385
231	0xbcc153d2	-0.023599539
232	0x3cc67767	0.024226857
233	0x3e0e57f6	0.13900742
234	0x3c784e35	0.015155365
235	0x3cbfde38	0.023421392
236	0xbda58c5c	-0.08083412
237	0x3d9a8a5a	0.0754592
238	0x3e02f3b7	0.12788282
239	0xbd27c7f8	-0.04096219
240	0x3e0cfb49	0.13767733
241	0xbd8e480f	-0.06947338
242	0xbcaa5636	-0.020793062
243	0xbdc3994e	-0.09550725
244	0x3da43385	0.08017639
245	0x3c94bef9	0.01815747
246	0xbdf59724	-0.119917184
247	0x3c4a24f3	0.012337911
248	0x3da697f4	0.081344515
249	0x3d6ac8d7	0.057320442
250	0xbc191d4e	-0.009345366
251	0xbdf1973c	-0.11796424
252	0x3cfc5c62	0.03080577
253	0x3d8da793	0.06916728
254	0x3d79447b	0.060856324
255	0x3d90d348	0.07071549

lstm.weight_hh_l1 f4 [256, 64]
0	0x3db9021d	0.09033606
1	0xbd53d996	-0.051721178
2	0xbdd23307	-0.10263639
3	0xbc4892fc	-0.012242075
4	0x3d6ca256	0.057772003
5	0xbd2440b8	-0.040100783
6	0x3d0add7f	0.03390264
7	0xbbad3418	-0.005285751
8	0x3c97fb4a	0.018552441
9	0xbd9e602c	-0.07733187
10	0xbd6d4568	-0.05792752
11	0x3d3f0c88	0.04664281
12	0xbda0dfcd	-0.078551866
13	0xbdbc6d38	-0.09200519
14	0x3e09d835	0.13461383
15	0xbd808c28	-0.06276733
16	0xbdbc950d	-0.09208117
17	0x3de3e90b	0.11128434
18	0x3bf762ce	0.0075496202
19	0xbda87ddf	-0.08227133
20	0x3dd4f899	0.10398979
21	0xbdac93ea	-0.0842665
22	0x3bebd60c	0.0071971472
23	0x3c632808	0.013864525
24	0x3c869ced	0.01643225
25	0x3c03794a	0.008024523
26	0xbda01091	-0.0781566
27	0x3df1235d	0.11774323
28	0xbca97cae	-0.020689335
29	0xbd5e0d76	-0.054212056
30	0x3dd52fe9	0.10409529
31	0xbd9d2ae3	-0.076741956
32	0x3dbeabb8	0.093100965
33	0x3db687de	0.08912633
34	0x3d8bee3f	0.06832551
35	0xbc2b931d	-0.010472086
36	0x3d894427	0.06702452
37	0xbdfa938a	-0.12235172
38	0xbda7f116	-0.0820028
39	0x3d526e1a	0.051374532
40	0xbc73bedd	-0.014877048
41	0x3d59209d	0.053009618
42	0x3d9aa245	0.07550482
43	0x3d7da839	0.061928008
44	0x3d62d762	0.055381186
45	0x3d8196eb	0.063276134
46	0xbd8a584d	-0.06755123
47	0x3dc93d8a	0.09826191
48	0x3bbac961	0.005700276
49	0xbd9820c9	-0.07428128
50	0xbb850fb1	-0.0040607085
51	0x3daa666a	0.08320315
52	0x3dd379b5	0.10325948
53	0x3c35a6cb	0.01108713
54	0x3d0aae17	0.03385743
55	0xbd362cf1	-0.044476453
56	0x3d63960b	0.055563014
57	0xbda04b4c	-0.07826862
58	0xbd023c7d	-0.031795967
59	0x3db3e0fe	0.08783148
60	0xbddf9fad	-0.109191276
61	0x3d824214	0.0636026
62	0x3de1abfb	0.11019131
63	0x3dfe6144	0.12420896
64	0xbd7ce672	-0.061743207
65	0x3dacbbad	0.08434234
66	0x3c5e529f	0.013569503
67	0xbd8281cc	-0.06372413
68	0xbde97701	-0.11399651
69	0x3c94ca70	0.018162936
70	0xbdafa869	-0.085770436
71	0x3dfe42f6	0.124151155
72	0x3bee7204	0.0072767753
73	0xbcd85fe7	-0.026412917
74	0x3dd67231	0.10470999
75	0x3cb48e67	0.022040559
76	0x3d1646b9	0.03668854
77	0x3dda08d3	0.10646214
78	0xbd9aef23	-0.07565143
79	0xbc417dce	-0.011809779
80	0x3c35ff93	0.011108297
81	0x3db0c903	0.0863209
82	0x3cf71165	0.030159662
83	0xbcb1c7e0	-0.021701753
84	0x3c047528	0.008084573
85	0xbdaac4fe	-0.083383545
86	0x3dc13eb0	0.09435785
87	0x3de88881	0.11354161
88	0xbd8e5378	-0.06949514
89	0x3dde5ce4	0.10857561
90	0xbdd63d4f	-0.104609124
91	0xbe125cf2	-0.14293268
92	0xbd779aed	-0.060450483
93	0xbd85b3dd	-0.06528447
94	0xbda31dc9	-0.079646654
95	0x3d5986eb	0.053107183
96	0x3bd56dd8	0.0065133385
97	0x3dadca5a	0.08485861
98	0xbd88bc98	-0.066765964
99	0x3cd9dcbf	0.026594518
100	0x3dd7470d	0.10511599
101	0x3c8fe463	0.017564958
102	0x3dde529b	0.108555995
103	0xbd83d212	-0.06436552
104	0x3b1d04cd	0.002395916
105	0xbdad4eac	-0.08462271
106	0x3cc4596b	0.023968419
107	0x3ca661a2	0.020310227
108	0x3dc1a1d1	0.09454692
109	0xbd92b20f	-0.07162868
110	0xbaf43fa9	-0.0018634695
111	0xbd6a9977	-0.05727526
112	0x3d09ede6	0.033674143
113	0xbd358447	-0.044315603
114	0xbdfb16a1	-0.122601755
115	0x3d0bb19c	0.03410493
116	0xbd1403fd	-0.036136616
117	0xbcf4d749	-0.029887812
118	0xbe02417d	-0.12720294
119	0xbd92fd8e	-0.07177268
120	0xbde64e19	-0.11245365
121	0x3bb1f4b0	0.0054307804
122	0x3dd9ff52	0.106444016
123	0xbcd355c4	-0.025797732
124	0xbdcbfdde	-0.09960531
125	0xbd200ebe	-0.03907656
126	0x3d32232e	0.04349058
127	0x3aa63786	0.0012681342
128	0xbc2df15e	-0.010616628
129	0x3d95e58c	0.07319173
130	0x3dd84333	0.10559692
131	0x3dcebe95	0.100949444
132	0x3b68c85e	0.0035519819
133	0x3d8540a4	0.0650647
134	0xbdd079b4	-0.10179463
135	0xbdba5533	-0.09098282
136	0xbc69d81a	-0.014272714
137	0x3da56984	0.08076766
138	0xbc14331f	-0.009045391
139	0x3dd15975	0.10222141
140	0xbd8d0e23	-0.06887462
141	0x3c1b4a15	0.009478112
142	0xbcaf08b3	-0.021366453
143	0xbbef1e80	-0.007297337
144	0xbc87c0be	-0.016571399
145	0xbe100778	-0.14065349
146	0x3d83c6d9	0.064344116
147	0x3d736e4e	0.059431367
148	0xbe0b9881	-0.13632394
149	0x3c809535	0.015696147
150	0x3c94b751	0.018153818
151	0x3d274fb5	0.0408475
152	0xbddcc21a	-0.107792094
153	0xbb34af9b	-0.002757049
154	0xbd51234f	-0.051059064
155	0xbdb984db	-0.09058543
156	0xbd31635a	-0.04330764
157	0xbda30ef4	-0.079618365
158	0xbd2969a7	-0.041360524
159	0xbc0332e1	-0.008007736
160	0x3dcbff66	0.09960823
161	0xbd96bd84	-0.07360366
162	0xbd9aa972	-0.075518504
163	0x3dbee62f	0.09321248
164	0xbcd28fa6	-0.025703263
165	0xbddd35ab	-0.10801252
166	0xbdd408ce	-0.10353242
167	0xbcbd48b5	-0.023105958
168	0xbccde356	-0.025132816
169	0xbd97eefb	-0.07418629
170	0x3d6cb549	0.057790074
171	0x3d9f2de5	0.077724256
172	0xbcf595c9	-0.02997865
173	0xbda2cd98	-0.0794937
174	0xbc9e3947	-0.019314421
175	0xbc4451e9	-0.0119824195
176	0x3c9f9df9	0.019484507
177	0xbdbedb10	-0.093191266
178	0xbdf91b87	-0.121634535
179	0xbd7a9516	-0.061177336
180	0xbcccbd5b	-0.024992635
181	0xbd4aeb18	-0.04954061
182	0xbd44db7a	-0.04806087
183	0x3daf2e39	0.08553738
184	0x3c982483	0.018572098
185	0xbbc32546	-0.005955371
186	0xbd5570d8	-0.05210957
187	0xbdae0262	-0.08496548
188	0xbd608a4e	-0.054819398
189	0x3d2b4801	0.041816715
190	0xbd63004a	-0.055420198
191	0x3bc23c3f	0.005927592
192	0xbde45cc1	-0.11150504
193	0xbd201977	-0.039086785
194	0xbc745da0	-0.0149149
195	0x3c9c13db	0.019052437
196	0x3dab3b7d	0.08360956
197	0xbdb3460b	-0.08753594
198	0xbd1f760a	-0.03893093
199	0xbd153808	-0.03643039
200	0xbd10a64f	-0.035314854
201	0x3dc86eb8	0.09786743
202	0xbd9735d8	-0.07383317
203	0xbdfb118f	-0.122592084
204	0xbd9f4251	-0.07776321
205	0x3ddeb7df	0.108749144
206	0xbccae676	-0.024768095
207	0x3dbe5c8b	0.09294995
208	0xbdebcaa2	-0.115132585
209	0xbcdf7c60	-0.027280986
210	0xbcc710a0	-0.02429992
211	0x3c45febc	0.012084659
212	0xbd43f87b	-0.04784439
213	0xbd84cfcf	-0.06484949
214	0xbd07e8bc	-0.033180937
215	0x3c6df1b2	0.014522957
216	0xbcc38af0	-0.023869962
217	0xbdd34e4e	-0.1031767
218	0xbd02ff32	-0.031981654
219	0x3ce68c84	0.028143175
220	0xbd54c224	-0.05194296
221	0xbca2f454	-0.019891895
222	0xbdc1a73c	-0.094557256
223	0x3dbbef0b	0.09176453
224	0xbc23c230	-0.009995028
225	0x3dd47417	0.10373705
226	0xbd0c58f9	-0.03426454
227	0xbd98401b	-0.07434102
228	0x3d52b3d0	0.051441014
229	0x3d0f64cd	0.03500824
230	0xbd9d7a1b	-0.076893054
231	0x3bc64fe6	0.006052005
232	0x3da9afe5	0.08285502
233	0xbda55586	-0.08072953
234	0xbda107e0	-0.0786283
235	0x3dd383b2	0.10327853
236	0xbd97429a	-0.0738575
237	0x3c15a39d	0.009133247
238	0x3d87439f	0.066046946
239	0xbdca6c12	-0.09883894
240	0x3da91884	0.08256629
241	0x3b8cdc72	0.00429874
242	0xbc1f147b	-0.009709473
243	0x3dcaeebc	0.09908816
244	0xbda3ee08	-0.08004385
245	0x3e00b943	0.12570672
246	0x3d563233	0.052293967
247	0xbd04e6f9	-0.032446835
248	0x3d9f1406	0.07767491
249	0x3ca56ece	0.020194437
250	0x3c409f8a	0.011756787
251	0xbda16fd2	-0.07882656
252	0xbced988b	-0.029003402
253	0x3db201d8	0.08691758
254	0x3c9d21ec	0.019181214
255	0x3ab5ab84	0.001386032

lstm.bias_ih_l1 f4 [256]
0	0x3ce0fe4c	0.027465008
1	0x3d876cbc	0.06612536
2	0x3d3d84aa	0.046269096
3	0x3de08814	0.10963455
4	0x3d2e1427	0.042499688
5	0x3d46f050	0.048569024
6	0xbd08c0b4	-0.0333869
7	0xbb344dc4	-0.0027512172
8	0x3d9371df	0.071994536
9	0xbd6e1ff9	-0.05813596
10	0xbde6f134	-0.112764746
11	0x3dc12373	0.094305895
12	0xbc0c633f	-0.008568584
13	0xbc29d467	-0.010365582
14	0xbd5a76ec	-0.05333607
15	0xbcd8db41	-0.026471736
16	0x3d886882	0.06660558
17	0x3d9599a1	0.07304693
18	0xbdd6b772	-0.10484208
19	0x3d993f86	0.07482819
20	0x3c43180f	0.0119075915
21	0xbdc14ed2	-0.09438862
22	0xbd33fb47	-0.04394081
23	0x3dcd3535	0.10019914
24	0xbc8e01ec	-0.0173349
25	0xbd1fe18c	-0.039033458
26	0xbc9081b3	-0.01763997
27	0xbdebbd89	-0.1151076
28	0x3bd53a8e	0.0065072244
29	0x3e053f81	0.13012506
30	0x3db64728	0.08900291
31	0xbda60084	-0.08105567
32	0x3d7e59eb	0.06209747
33	0xba043f03	-0.000504479
34	0x3de7da9e	0.11320995
35	0xbca7508c	-0.02042415
36	0x3b9668f2	0.004590147
37	0x3af8b72a	0.0018975486
38	0xbddd519d	-0.10806582
39	0xbd8f842b	-0.07007631
40	0xbc974cbb	-0.018469205
41	0xbe0ef8a0	-0.1396203
42	0x3de582ed	0.11206613
43	0x3d9bbdd1	0.07604564
44	0x3d8e691d	0.069536425
45	0xbcd98a41	-0.026555182
46	0x3db5d81c	0.0887911
47	0x3d1095c1	0.035299066
48	0x3df0c45c	0.117562026
49	0x3dcad927	0.099047
50	0x3ce50b7c	0.027959578
51	0xbcafe530	-0.02147159
52	0xbca5ef7f	-0.020255802
53	0x3d77c72a	0.060492672
54	0x3c614236	0.013748696
55	0xbd98d5c3	-0.07462647
56	0x3d162133	0.036652755
57	0x3dc9f40e	0.09861003
58	0x3a6a0811	0.00089275936
59	0x3c338905	0.010957961
60	0xbd749cc5	-0.05971982
61	0xbc207687	-0.009793884
62	0x3d55633a	0.052096583
63	0x3d8048ad	0.06263862
64	0xbdd2f4ef	-0.103006236
65	0xbc4fd455	-0.012684901
66	0xbd8e0ea1	-0.06936384
67	0x3db2fbf4	0.087394625
68	0xbc93a15d	-0.01802128
69	0xbab40d7d	-0.001373693
70	0xbda6913b	-0.08133169
71	0xbe080a50	-0.13285184
72	0xbdb26722	-0.08711077
73	0xbdbdb67a	-0.0926332
74	0x3dbe935b	0.093054496
75	0xbbf191dd	-0.0073721246
76	0xbc7c69d6	-0.015406093
77	0xbcea2b16	-0.028584998
78	0x3ba3bd6b	0.0049969456
79	0xbd263ff1	-0.040588323
80	0xbe001524	-0.12508065
81	0xbd1bad0a	-0.03800682
82	0xbdc4dffb	-0.096130334
83	0xbc93c866	-0.018039893
84	0xbcdfefe9	-0.027336078
85	0x3dcacdc6	0.099025294
86	0xbcc94ee4	-0.02457375
87	0x3b20f287	0.002455862
88	0x3d757dbd	0.059934366
89	0x3dda6cde	0.10665296
90	0x3d8101b2	0.062991515
91	0x3c187f49	0.009307691
92	0x3d7b4d7e	0.0613532
93	0x3c81b691	0.015834125
94	0x3d0dab52	0.034587212
95	0xbdcbbc12	-0.09947981
96	0xbd9ea499	-0.07746238
97	0x3d8c1f20	0.06841874
98	0xbd6990df	-0.057022925
99	0x3d95ebbb	0.07320353
100	0x3c68210d	0.014168036
101	0x3d8cd417	0.068763904
102	0x3b946841	0.0045290296
103	0xbd6cfc1b	-0.057857614
104	0xbdc4346f	-0.095803134
105	0xbd308313	-0.043093752
106	0x3d8b4131	0.06799544
107	0x3dec1b1c	0.11528608
108	0xbe0d3be5	-0.13792379
109	0x3d505b9f	0.050868627
110	0x3d2f4165	0.042786974
111	0x3da83eeb	0.08215126
112	0x3d53376f	0.051566537
113	0x3e01ac3f	0.12663363
114	0xbdfc8afe	-0.12331198
115	0xbdf4842a	-0.11939271
116	0xbb97b650	-0.0046298876
117	0xbcc00afa	-0.023442734
118	0x3d00cb72	0.03144402
119	0xbd9684b9	-0.073495336
120	0xbd9add97	-0.07561796
121	0xbdbabdf3	-0.09118261
122	0x3d2def9f	0.04246485
123	0x3b9e895f	0.0048381533
124	0xbdabba07	-0.08385091
125	0x3d06583f	0.032799
126	0xbdb1a434	-0.086738974
127	0xbda952fc	-0.08267781
128	0xbbb8683d	-0.0056276605
129	0xbcbf19de	-0.023327764
130	0x3d8bbaf0	0.06822765
131	0x3c25eb2a	0.010126868
132	0xbd5f82d2	-0.05456812
133	0xbda937d9	-0.08262605
134	0x3d6a3882	0.057182796
135	0xbe00e07c	-0.12585634
136	0x3d9c90ec	0.07644829
137	0x3ccd3d8b	0.02505376
138	0x3d368f71	0.04457039
139	0x3d37a8c6	0.04483869
140	0x3de8c685	0.113659896
141	0xbdaaf2c2	-0.08347084
142	0xbe058967	-0.13040696
143	0x3d642d12	0.055707045
144	0x3cddf4b3	0.02709422
145	0x3dea7386	0.114478156
146	0xbe070b99	-0.13188018
147	0x3cb82070	0.022476405
148	0x3d379bb5	0.04482623
149	0xbc6d19ee	-0.014471514
150	0xbdc9697e	-0.09834574
151	0xbd7749c9	-0.0603731
152	0x3e053249	0.13007464
153	0xbcaaef6a	-0.020866115
154	0xbdc2ad50	-0.09505713
155	0xbd997e40	-0.074947834
156	0xbdc5182b	-0.0962375
157	0x3dde9df2	0.108699694
158	0xbd244e31	-0.04011363
159	0xbd2b2f86	-0.04179337
160	0x3d3294f2	0.043599077
161	0xb99a9210	-0.00029481994
162	0x3de03333	0.109472655
163	0x3e057015	0.13031037
164	0x3cca0218	0.024659202
165	0x3dc866ef	0.09785258
166	0xbcabd4a9	-0.020975428
167	0x3d97de58	0.074154556
168	0xbbb52053	-0.005527535
169	0x3c3a2e9d	0.011363653
170	0x3df49aa8	0.11943561
171	0xbcf917cb	-0.030406853
172	0xbd0c0f0d	-0.03419404
173	0x3db91a4d	0.090382196
174	0x3dba077f	0.09083461
175	0x3dbb69d4	0.091510445
176	0xbcb4eedb	-0.022086551
177	0x3dbc5cd5	0.09197394
178	0xbcd7297e	-0.026264902
179	0x3dc4c2ea	0.096074894
180	0x3dcd1ad7	0.10014885
181	0x3b287382	0.0025703614
182	0x3ca6c1b1	0.020356031
183	0x3d16a03c	0.036773905
184	0xbdb3643b	-0.08759352
185	0x3d78eca8	0.060772568
186	0xbc9703ae	-0.018434372
187	0x3e0d77f9	0.13815297
188	0xbd7229fa	-0.059122063
189	0xbe03b359	-0.12861384
190	0xbd987812	-0.074447766
191	0xbde16a2b	-0.11006578
192	0x3c57d4e9	0.01317332
193	0xbd6c81ac	-0.057740852
194	0xbd841d24	-0.06450871
195	0xbdc122b8	-0.0943045
196	0x3df73e39	0.12072415
197	0xbbfa0d7c	-0.007631002
198	0xbca8cf31	-0.020606609
199	0xbdd57705	-0.10423092
200	0x3d9ee9c7	0.07759433
201	0x3da68da3	0.08132484
202	0xbd1be0b4	-0.03805609
203	0x3d597fca	0.053100385
204	0x3dfceccd	0.12349854
205	0xbc8f24e7	-0.017473651
206	0x3d55b83a	0.052177645
207	0x3cdea059	0.02717607
208	0xbd8139f7	-0.06309884
209	0xbdb09b2b	-0.08623346
210	0xbc955a36	-0.018231492
211	0xbd4d169b	-0.050070386
212	0xbd542664	-0.051794425
213	0xbd9750e7	-0.07388478
214	0xbdbe6319	-0.09296245
215	0xbda043f1	-0.07825459
216	0x3dd3e52d	0.10346446
217	0x3dfea989	0.1243468
218	0x3d399194	0.04530485
219	0xbdd621d1	-0.10455669
220	0xbd3bd745	-0.045859594
221	0xbdc30fee	-0.09524523
222	0xbdc1a601	-0.09455491
223	0x3dfb9ee4	0.12286165
224	0x3d771825	0.06032576
225	0xbdbc6239	-0.09198422
226	0x3dfbe18f	0.12298881
227	0xbcf8fedf	-0.03039497
228	0xbdab576e	-0.08366285
229	0x3d998c02	0.074974075
230	0xbcb69990	-0.022290021
231	0x3dd55d15	0.104181446
232	0x3cb892aa	0.022530872
233	0x3dbb3fff	0.09143066
234	0x3e0161c4	0.12634951
235	0xbdb7ddff	-0.08977889
236	0x3d895cb6	0.06707136
237	0xbcfa15f7	-0.030528052
238	0x3c3b9717	0.011449597
239	0x3dd5913a	0.104280904
240	0xbcc879df	-0.024472175
241	0x3cc95dbd	0.02458083
242	0xbd9007a3	-0.070327066
243	0xbd39470a	-0.045233764
244	0xbc480cbb	-0.012210066
245	0xbd61604f	-0.055023488
246	0x3c3be2c0	0.011467636
247	0x3dce5187	0.10074144
248	0x3dbc8cee	0.09206568
249	0xbcabc57a	-0.020968188
250	0xbb144ce6	-0.0022628843
251	0x3b3205de	0.0027164142
252	0x3da6cdff	0.081447594
253	0xbb82e58e	-0.00399465
254	0xbbbf8788	-0.005845014
255	0x3de3f45b	0.111305915
